tb_model_weights.pth (torch, 74417 bytes, 8 tensors)

forward_policy.0.weight f4 [128, 64]
-0.049188238 -0.05098896 0.040636647 0.045705877 -0.04012422 0.065752484 0.087974295 0.024877626
0.014823575 0.03493378 0.01860799 -0.04439142 0.004417538 -0.032277793 -0.05973304 0.13093235
-0.076791175 -0.012251696 0.107004486 0.10495048 0.024034258 0.024016716 0.1245266 0.21358489
0.07371911 0.11468584 0.049167626 0.010141807 0.02262145 -0.012470412 -0.022236228 0.053687137
0.038839567 -0.087802164 0.12723596 -0.0750246 -0.027235031 0.1761181 -0.001296523 0.16202098
0.09209012 -0.041060954 0.034058336 0.12947708 -0.10260537 0.0250659 0.1482357 0.13727306
0.015744982 0.046352416 0.04706018 -0.08551888 0.045638084 0.022724986 -0.029872075 0.095247716
0.07536227 -0.09705245 -0.08013137 0.03095362 0.05061809 0.01779724 -0.06058356 -0.06157036
0.091871716 0.030844655 -0.04428153 0.15468265 0.06748196 0.11983888 0.15163346 0.09237932
0.016495856 0.0066496646 0.040545948 0.12081115 0.13877092 0.016987499 0.12643583 0.13908345
0.08277452 -0.007101581 0.028038625 0.045223717 -0.075391084 0.018696697 0.13946664 0.081896484
0.031085806 0.12394973 -0.14100742 0.1518924 0.13296564 0.09318555 0.08528843 0.108335674
0.031357173 -0.116940744 -0.0014636507 -0.057958618 0.082496345 0.12941234 0.25113216 -0.14103429
-0.09159811 -0.050030157 0.0085520465 -0.069477335 0.06128703 -0.0011893099 -0.07385035 0.09563215
0.057329502 -0.13916977 -0.14033411 -0.13381127 -0.102149434 -0.14122596 0.06492944 -0.08493078
0.012497712 0.045129992 -0.059792105 -0.014263455 -0.14467731 -0.12267148 0.11195272 0.096701145
-0.034878775 0.10323903 -0.046054468 0.043140564 0.00980179 -0.027198464 0.0016366988 0.0017873347
-0.09927963 0.08436954 0.0070502753 -0.0048146546 0.043200426 0.010796122 -0.0604358 -0.09926009
0.011153802 -0.04314983 0.008631151 0.025237082 0.09260875 0.015559032 0.04071731 0.011966284
-0.036569625 0.102596 -0.018720582 -0.010629877 0.071229756 0.08191805 -0.11672528 -0.11183743
0.101567745 -0.02316828 -0.010762647 -0.00047311187 -0.050375342 -0.1248648 -0.1017593 0.11875722
-0.11923444 0.14769694 -0.03050524 -0.0012460202 -0.07092397 0.11867996 0.011615396 -0.046999425
-0.10605289 0.14041868 -0.09383389 0.18478233 0.1913526 -0.006932363 -0.0010948628 0.061646774
0.117199875 0.07114919 0.015575183 -0.10216917 0.023656916 0.013076707 0.09566642 0.051162943
0.075656354 -0.10130316 0.0862648 -0.11447507 0.012957275 0.08983285 -0.058456555 -0.049960107
-0.09898937 -0.069137394 0.02515839 -0.04244542 0.048648506 -0.0858949 -0.0040142983 0.07491644
-0.113772854 0.026089013 -0.060989335 -0.02447994 -0.10227682 -0.01604566 0.075247526 -0.10013674
0.010917038 -0.10685775 -0.07671061 0.07253926 0.04631263 -0.06902823 -0.025875226 -0.12468226
-0.010311469 -0.05513598 -0.05747901 -0.03308843 -0.06666346 0.07496503 -0.07831319 -0.01579462
-0.079046175 0.01784563 -0.006047398 -0.047921672 -0.07143833 0.03032361 0.06301591 0.017435655
-0.03186299 -0.056699947 0.03129506 -0.108969554 0.00040626526 0.05728808 -0.009672046 0.08996542
-0.059031248 -0.06882386 -0.034091875 0.046981215 0.27013677 -0.063268304 0.02818185 -0.024246588
00000000: 9b79 49bd cdd9 50bd 9d72 263d 1636 3b3d
00000010: 4b59 24bd 3da9 863d de2b b43d 2acc cb3c
00000020: 94de 723c b916 0f3d c96f 983c c7d3 35bd
00000030: ffc0 903b b835 04bd a2aa 74bd 2113 063e
00000040: b144 9dbd 56bb 48bc 2b25 db3d 47f0 d63d
00000050: 7ee3 c43c b4be c43c cd07 ff3d ffb5 5a3e
00000060: 0bfa 963d 69e0 ea3d fe63 493d d229 263c
00000070: 9e50 b93c b350 4cbc c028 b6bc 0be7 5b3d
00000080: 3d16 1f3d 9fd1 b3bd 254a 023e 7fa6 99bd
00000090: 001c dfbc 4e58 343e 18f0 a9ba d4e8 253e
000000a0: bf99 bc3d 882f 28bd c180 0b3d a495 043e
000000b0: c422 d2bd 0157 cd3c 19cb 173e 4f91 0c3e
000000c0: 9ffb 803c 08dc 3d3d 2dc2 403d 8624 afbd
000000d0: 00ef 3a3d c029 ba3c 48b6 f4bc 3c11 c33d
000000e0: 8957 9a3d 6fc3 c6bd ea1b a4bd 7292 fd3c
000000f0: ea54 4f3d 84cb 913c 7826 78bd 3431 7cbd
00000100: 3d27 bc3d eead fc3c 8d60 35bd 2165 1e3e
00000110: fb33 8a3d 166e f53d cd45 1b3e 5e31 bd3d
00000120: 5122 873c 6ee5 d93b 8213 263d d66b f73d
00000130: f719 0e3e 5e29 8b3c 6578 013e e46b 0e3e
00000140: b085 a93d 61b4 e8bb 42b1 e53c 813c 393d
00000150: a466 9abd d129 993c 58d0 0e3e 58b9 a73d
00000160: a9a7 fe3c 5bd9 fd3d 4064 10be ae89 1b3e
00000170: 2528 083e 11d8 be3d b3ab ae3d 18df dd3d
00000180: 6170 003d a17e efbd f8d7 bfba 0466 6dbd
00000190: d8f3 a83d ab84 043e 6594 803e 4b6b 10be
000001a0: ca97 bbbd 6cec 4cbd e21d 0c3c 224a 8ebd
000001b0: 1c08 7b3d 9ee2 9bba da3e 97bd cada c33d
000001c0: 57d2 6a3d 8582 0ebe bfb3 0fbe d205 09be
000001d0: b933 d1bd 8a9d 10be baf9 843d 30f0 adbd
000001e0: 34c3 4c3c 3ada 383d 91e8 74bd 44b1 69bc
000001f0: 4a26 14be 2f3b fbbd 7847 e53d 400b c63d
00000200: 0cdd 0ebd fc6e d33d 9ca3 3cbd 29b4 303d
00000210: b097 203c 50cf debc 8086 d63a 0045 ea3a
00000220: 1e53 cbbd f0c9 ac3d ff05 e73b 40c4 9dbb
00000230: eef2 303d 38e2 303c 888b 77bd e048 cbbd
00000240: 70be 363c e0bd 30bd ac69 0d3c ffbd ce3c
00000250: a8a9 bd3d 4feb 7e3c 32c7 263d 3c0e 443c
00000260: 08ca 15bd da1d d23d e85b 99bc f028 2ebc
00000270: e8e0 913d a7c4 a73d aa0d efbd 060b e5bd
00000280: c002 d03d 68cb bdbc d055 30bc 000c f8b9
00000290: 6056 4ebd 1eb9 ffbd 2e67 d0bd fc36 f33d
000002a0: 3031 f4bd de3d 173e 20e6 f9bc 8051 a3ba
000002b0: 9640 91bd 7b0e f33d 804e 3e3c 7882 40bd
000002c0: 4232 d9bd eac9 0f3e fc2b c0bd 9437 3d3e
000002d0: f0f1 433e e028 e3bb 8081 8fba 5481 7c3d
000002e0: 7d06 f03d abb6 913d 0d2f 7f3c 123e d1bd
000002f0: 26cc c13c af3f 563c c2ec c33d 3c90 513d
00000300: b8f1 9a3d 0878 cfbd 99ab b03d e871 eabd
00000310: c04a 543c 49fa b73d 2470 6fbd f8a2 4cbd
00000320: f0ba cabd e897 8dbd f818 ce3c 40db 2dbd
00000330: a843 473d aae9 afbd 608a 83bb ca6d 993d
00000340: be01 e9bd a0b8 d53c f4cf 79bd 288a c8bc
00000350: 8276 d1bd 3072 83bc 601b 9a3d 7e14 cdbd
00000360: 60dd 323c 3cd8 dabd 741a 9dbd 778f 943d
00000370: 50b2 3d3d ac5e 8dbd 48f8 d3bc 6a59 ffbd
00000380: 70f1 28bc 44d6 61bd 1c6f 6bbd bc87 07bd
00000390: da86 88bd 4487 993d aa62 a0bd b863 81bc
000003a0: f6e2 a1bd 0031 923c 4029 c6bb 8449 44bd
000003b0: 424e 92bd 3869 f83c 7c0e 813d 38d5 8e3c
000003c0: c482 02bd 343e 68bd 402f 003d 6e2b dfbd
000003d0: 0000 d539 e8a6 6a3d 8077 1ebc ca3f b83d
000003e0: c0ca 71bd 86f3 8cbd eca3 0bbd 606f 403d
000003f0: 5e4f 8a3e d092 81bd a0dd e63c c8a0 c6bc

forward_policy.0.bias f4 [128]
0.17260936 0.13661364 -0.038477708 -0.10452008 0.1783326 0.062914975 0.10877209 -0.005950614
0.06386091 -0.0036852749 0.19656938 0.063242294 0.11101519 0.15538195 0.13269144 -0.08166057
-0.123314664 0.13595875 -0.037369777 -0.022524204 0.13455524 0.19966432 -0.12691686 0.05087055
0.19738746 -0.03623008 -0.043862954 0.19034486 -0.013046873 0.15288751 0.033566754 0.21882826
-0.08308232 -0.03710047 0.17421007 0.115568206 0.020629464 0.14802817 0.0037762616 0.026815971
0.112465985 -0.06318262 0.19705991 0.1169319 0.1831522 -0.008194949 -0.039430484 0.07502284
0.12257335 -0.11617368 -0.031146167 -0.0024765881 0.08287775 0.08077582 0.10549454 0.0085874805
-0.017060867 -0.06572847 0.12698917 0.09421608 0.14883196 0.03783655 -0.054582197 0.06217547
-0.0030218984 -0.04297532 -0.11107381 0.12880835 0.13209106 -0.056882042 -0.016239535 0.020799968
0.18347271 0.15772663 -0.12633117 0.0615578 0.13253509 -0.121707305 0.18910804 0.09217964
-0.014010646 0.013930721 0.15507251 0.058574025 -0.09266034 0.04140402 -0.009530218 0.0029067064
0.025360929 0.051762328 0.027945079 0.10967219 0.038617957 0.18291083 0.04788985 -0.019520463
1.6574573e-05 0.049221486 -0.108516894 -0.11773678 0.08647276 -0.044097245 0.016570386 -0.023940865
0.14698285 0.043360665 0.19910724 0.1725129 0.14794938 0.14671788 0.024293425 -0.10773133
0.115314476 0.17368715 0.05917926 -0.06021529 -0.12518026 0.115645364 0.092854135 -0.09953783
0.11680038 0.026602212 0.15001564 -0.12767334 -0.06828593 0.039435342 0.119874604 0.13179491
00000000: 82c0 303e 72e4 0b3e cd9a 1dbd a00e d6bd
00000010: d29c 363e 91d9 803d e7c3 de3d 5efd c2bb
00000020: 82c9 823d a784 71bb 7c49 493e 2d85 813d
00000030: ef5b e33d 721c 1f3e 44e0 073e a83d a7bd
00000040: 668c fcbd c538 0b3e 0d11 19bd ae84 b8bc
00000050: d9c8 093e ce74 4c3e 7ef6 01be a35d 503d
00000060: f01f 4a3e fe65 14bd a4a9 33bd c3e9 423e
00000070: 8dc2 55bc 8b8e 1c3e 4b7d 093d 8414 603e
00000080: 1027 aabd aaf6 17bd 2064 323e 06af ec3d
00000090: 1fff a83c b294 173e 287b 773b 2bad db3c
000000a0: 9154 e63d e465 81bd 13ca 493e fe79 ef3d
000000b0: 408c 3b3e 1b44 06bc dc81 21bd 93a5 993d
000000c0: bd07 fb3d 77ec edbd 3f26 ffbc 414e 22bb
000000d0: cfbb a93d cb6d a53d 850d d83d 81b2 0c3c
000000e0: 3bc3 8bbc a69c 86bd 7309 023e 5cf4 c03d
000000f0: 6867 183e 80fa 1a3d 9591 5fbd b5ab 7e3d
00000100: 0b0b 46bb e406 30bd aa7a e3bd 56e6 033e
00000110: e142 073e 25fd 68bd c608 85bc b264 aa3c
00000120: 45e0 3b3e 1783 213e f55c 01be 0824 7c3d
00000130: 47b7 073e ae41 f9bd 8aa5 413e aec8 bc3d
00000140: e98c 65bc ae3d 643c 54cb 1e3e 51eb 6f3d
00000150: b4c4 bdbd 4397 293d a224 1cbc 717e 3e3b
00000160: b9c1 cf3c bc04 543d 14ed e43c d09b e03d
00000170: dd2d 1e3d fa4c 3b3e 2628 443d 61e9 9fbc
00000180: a009 8b37 789c 493d 1b3e debd fb1f f1bd
00000190: a118 b13d 509f 34bd 9ebe 873c a21f c4bc
000001a0: ac82 163e f49a 313d c5e2 4b3e 39a7 303e
000001b0: 0b80 173e 363d 163e 0103 c73c 3ea2 dcbd
000001c0: ff29 ec3d 0bdb 313e f465 723d 4fa4 76bd
000001d0: 412f 00be 7ad7 ec3d 4f2a be3d 7dda cbbd
000001e0: 0a35 ef3d e2ec d93c b39d 193e cdbc 02be
000001f0: 7ed9 8bbd f486 213d d180 f53d 3ff5 063e

forward_policy.2.weight f4 [4, 128]
0.06165444 -0.0828819 0.067730464 -0.031760912 0.1359766 0.10256441 0.17145565 -0.1582668
0.07675884 0.14158304 0.05914325 0.07467428 0.1665 -0.04984315 0.10277545 0.04608776
0.050229125 -0.046439108 0.038906768 0.121657416 0.07815319 0.030576149 -0.026070025 -0.17458716
0.06862704 -0.05198284 -0.08147803 0.11122676 -0.06722908 -0.05376597 -0.23026854 -0.031874985
0.10887406 0.09962766 0.06928941 0.090507194 0.13972957 0.15775749 0.08023969 0.0078024305
0.0491146 -0.08937909 0.006391806 0.14592052 0.07618338 -0.03852782 0.034090158 0.106004916
0.2417886 -0.027444832 -0.19045924 0.04732713 0.06640148 0.20034705 0.10983227 -0.035917684
0.08250576 -0.065857515 -0.026842102 0.0009291023 0.13069583 -0.13768207 -0.07334105 0.15029204
-0.010201638 0.096547894 0.061928585 0.10055063 -0.016764473 0.15940858 0.04285198 -0.012388932
0.0072011347 0.06722118 -0.04793075 -0.03400517 0.14381325 -0.062051974 0.014342746 0.21105503
-0.019883284 0.110200815 -0.0046618325 0.047756866 0.0015715776 -0.027596746 -0.08976515 0.034599807
0.16499731 0.049813792 -0.009865849 0.016634805 0.105463676 -0.12644221 -0.02025979 0.10297291
-0.07449799 0.01867601 -0.07549343 0.0236559 0.078880385 -0.10687183 0.11173023 0.15269457
0.113013186 -0.101759315 0.035853922 0.17947267 0.20263219 -0.02804607 0.13244402 0.03955798
0.1825239 0.05439422 0.08913955 0.09911005 -0.055104937 0.13916558 -0.0013408881 -0.04708525
-0.03940272 -0.15454608 -0.06268267 -0.008534393 0.12509836 0.22940257 -0.11159462 0.012459601
0.106464244 0.13406333 -0.13682422 -0.04018467 -0.07837859 -0.040544502 0.024598008 0.044163387
-0.024563862 0.036656994 0.13593394 -0.069910854 0.03025992 0.18992993 -0.038085498 -0.083193325
0.046563514 0.20265448 -0.14980684 -0.021885049 0.038570795 0.13423027 0.011233597 0.21869017
0.11855439 0.018410929 0.09987569 0.1231821 0.097712524 0.1539582 0.24236952 0.1953518
-0.013120029 0.018452557 0.032073613 -0.14276648 -0.16524598 0.032991666 0.12658007 -0.044206463
0.14255582 0.042287618 0.17839165 -0.10111086 0.116678625 0.080851816 0.06489152 0.02002138
-0.13369808 -0.02479555 0.17320655 0.09645235 0.101184234 -0.08139975 0.051179845 0.036863796
-0.052697927 0.025402442 0.2236188 0.19409396 -0.014378798 0.026504891 0.033250447 -0.024545388
-0.039662857 -0.081440754 -0.019105215 0.11856405 0.17778169 -0.15556896 0.017829241 0.023931975
0.10560558 -0.07373346 0.00041226394 0.11602174 -0.045002222 -0.011852697 0.15525122 -0.19057125
0.016067421 -0.017221157 0.14016081 0.021785516 -0.0017172162 0.17536004 0.14483632 0.057505287
0.0485279 0.16351955 0.031323254 0.10850574 -0.06330521 0.19923653 0.018093156 -0.08684421
0.14891283 0.040605802 -0.06913607 0.01162333 0.09072322 0.1455469 -0.19397308 -0.047421657
0.033069402 0.18051147 0.08925876 0.007004461 -0.038120728 0.17205949 0.10195582 0.072933294
-0.09964647 0.1123501 0.10315707 0.0048730196 -0.059553552 -0.0033163598 0.2075093 -0.043703556
0.027153471 0.23495495 0.18207364 -0.06406716 -0.01260383 -0.22952211 0.2050938 0.09035085
00000000: 5e89 7c3d fcbd a9bd 45b6 8a3d bb17 02bd
00000010: 733d 0b3e 4a0d d23d 1292 2f3e b110 22be
00000020: bd33 9d3d 25fb 103e 3140 723d d4ee 983d
00000030: fa7e 2a3e 5528 4cbd ef7b d23d 85c6 3c3d
00000040: 0ebd 4d3d ef36 3ebd b45c 1f3d 8627 f93d
00000050: c80e a03d d57a fa3c ce90 d5bc fac6 32be
00000060: 558c 8c3d f5eb 54bd f4dd a6bd dbca e33d
00000070: 66af 89bd b539 5cbd 84cb 6bbe 588f 02bd
00000080: 5df9 de3d 9609 cc3d 9be7 8d3d d65b b93d
00000090: 4515 0f3e 2e8b 213e b554 a43d 88ab ff3b
000000a0: 642c 493d 620c b7bd 5b72 d13b 306c 153e
000000b0: 0806 9c3d 59cf 1dbd 1fa2 0b3d 1b19 d93d
000000c0: 6e97 773e fcd3 e0bc bf07 43be 18da 413d
000000d0: 80fd 873d c727 4d3e beef e03d 6c1e 13bd
000000e0: c8f8 a83d 4ee0 86bd f8e3 dbbc 008f 733a
000000f0: 21d5 053e 87fc 0cbe d533 96bd 28e6 193e
00000100: c524 27bc e7ba c53d d4a8 7d3d 7ded cd3d
00000110: a655 89bc 013c 233e 8f85 2f3d f2fa 4abc
00000120: 7ff7 eb3b 42ab 893d 0953 44bd 0149 0bbd
00000130: c843 133e 362a 7ebd d6fd 6a3c cf1e 583e
00000140: 45e2 a2bc f7b0 e13d 49c2 98bb b49c 433d
00000150: 65fd cd3a 9212 e2bc cad6 b7bd 87b8 0d3d
00000160: 0ef5 283e 8c09 4c3d 5fa4 21bc b745 883c
00000170: 57fd d73d 117a 01be dcf7 a5bc 76e3 d23d
00000180: 6792 98bd 6ffe 983c 4d9c 9abd 05ca c13c
00000190: 0a8c a13d 9edf dabd d2d2 e43d f75b 1c3e
000001a0: 7573 e73d 3067 d0bd 90db 123d afc7 373e
000001b0: d07e 4f3e dfc0 e5bc 689f 073e 8c07 223d
000001c0: 8ce7 3a3e 79cc 5e3d cc8e b63d 36fa ca3d
000001d0: b7b5 61bd 6c81 0e3e bdc0 afba 77dc 40bd
000001e0: bf64 21bd 5441 1ebe c65f 80bd d7d3 0bbc
000001f0: c919 003e 82e8 6a3e b88b e4bd 5b23 4c3c
00000200: ed09 da3d e647 093e a61b 0cbe ae98 24bd
00000210: f484 a0bd fe11 26bd c381 c93c abe4 343d
00000220: 273a c9bc a525 163d 4432 0b3e 6c2d 8fbd
00000230: a7e3 f73c fe7c 423e 8aff 1bbd 4361 aabd
00000240: 62b9 3e3d a884 4f3e f766 19be 4648 b3bc
00000250: 69fc 1d3d a973 093e 1f0d 383c 51f0 5f3e
00000260: a5cc f23d 84d2 963c a08b cc3d e646 fc3d
00000270: 811d c83d 38a7 1d3e b72f 783e 4d0a 483e
00000280: 64f5 56bc d129 973c 9f5f 033d 6031 12be
00000290: 3e36 29be 4522 073d 359e 013e d611 35bd
000002a0: 27fa 113e c835 2d3d 4dac 363e 3613 cfbd
000002b0: 34f5 ee3d a395 a53d d8e5 843d e103 a43c
000002c0: 26e8 08be 0a20 cbbc 0f5d 313e cf88 c53d
000002d0: ae39 cf3d eab4 a6bd f5a1 513d 7efe 163d
000002e0: c8d9 57bd c818 d03c 54fc 643e 91c0 463e
000002f0: 0d95 6bbc c920 d93c 9f31 083d 6913 c9bc
00000300: 8575 22bd 69ca a6bd 8a82 9cbc b5d1 f23d
00000310: 670c 363e 784d 1fbe a10e 923c fd0c c43c
00000320: bd47 d83d 9101 97bd 2125 d839 ce9c ed3d
00000330: 4054 38bd d031 42bc 2dfa 1e3e 1c25 43be
00000340: d39f 833c 6213 8dbc 5186 0f3e 8a77 b23c
00000350: 3714 e1ba 9591 333e f94f 143e aa8a 6b3d
00000360: 31c5 463d ab71 273e d04c 003d 4238 de3d
00000370: 29a6 81bd a904 4c3e 1938 943c 61db b1bd
00000380: 9b7c 183e 4552 263d 3697 8dbd c86f 3e3c
00000390: 18cd b93d 3f0a 153e e1a0 46be 363d 42bd
000003a0: c873 073d 00d8 383e 4ccd b63d ad85 e53b
000003b0: 7b24 1cbd 5d30 303e 37ce d03d 0d5e 953d
000003c0: 7313 ccbd cf17 e63d 0444 d33d daad 9f3b
000003d0: 6dee 73bd 4957 59bb 517d 543e 8002 33bd
000003e0: f570 de3c 0898 703e 8371 3a3e a535 83bd
000003f0: 4b80 4ebc d807 6bbe 1c04 523e de09 b93d

forward_policy.2.bias f4 [4]
0.082600765 0.021364236 -0.13220572 -0.014987682
00000000: 972a a93d 0d04 af3c f060 07be e58e 75bc

backward_policy.0.weight f4 [128, 64]
0.0027626455 -0.051286936 0.05895534 0.12338722 0.0025765002 -0.0076967627 -0.035331607 0.09967971
0.02534905 0.0021830648 -0.029349834 -0.084708616 -0.05023752 0.09241529 -0.040787682 -0.117617875
-0.100300625 -0.035859004 0.04896176 0.02981171 -0.045431614 0.052240357 0.005193427 -0.006728366
-0.073266834 0.05919616 -0.086774126 -0.035626844 -0.090972885 -0.08194809 -0.026814252 -0.0801857
0.104448795 -0.098199636 0.07826249 -0.048242822 0.071199656 0.073391974 -0.05224189 0.006970465
0.05840929 -0.066268 -0.082167506 -0.037210047 -0.04918343 -0.06843978 0.041545227 -0.08980173
-0.116928086 0.009292334 -0.08305167 0.070262 0.027218103 -0.06847118 0.044668138 -0.031716272
-0.04669082 -0.031235844 -0.07010947 0.11058183 0.05284837 -0.025193214 -0.0131531805 -0.015502349
0.035740882 0.09610835 -0.014247686 0.038180187 -0.05614093 -0.02120328 -0.054868802 0.001797989
-0.014524594 0.075206414 -0.098109245 -0.05419475 0.099784434 0.06482704 0.116341546 0.025830552
-0.064940706 0.0005801022 -0.10527788 0.011808693 0.011584654 -0.016124815 -0.07393135 0.074879766
-0.08450322 -0.040871322 0.0636362 -0.09371637 0.07820815 -0.10940121 0.078646496 0.104724854
-0.0008801222 0.123749614 0.08616176 -0.11790697 0.07867955 -0.009121165 0.016058773 0.0033643395
0.055669263 -0.066149175 -0.09396191 0.10767542 -0.12353802 0.08734809 -0.04443243 -0.03351277
0.03204982 -0.011961281 0.1049241 0.05955389 0.11397649 0.03880085 0.11067487 -0.007717401
0.024929032 0.09248367 0.011490405 -0.10953498 0.08407809 0.021964699 0.025523648 -0.077555
0.07384381 -0.09804328 -0.09902954 0.1245766 -0.0658381 0.0078458935 0.09025589 -0.1241187
-0.0911416 -0.12384914 0.013084874 -0.11896397 0.02177094 0.06834698 0.08730383 0.12205513
-0.121000245 -0.08468899 0.074843585 0.122338966 0.011437193 0.09233059 0.0570606 -0.006556079
-0.042565838 0.11520399 -0.051434815 0.010201946 -0.10140216 0.07956731 -0.08749436 0.100221306
-0.037256047 -0.0015052855 0.012413919 0.1101145 0.09319827 0.064719275 -0.01871878 0.09122257
0.06470251 0.07256718 -0.066957414 0.034707338 -0.12429452 -0.09275657 -0.06296979 0.07659243
-0.059075803 0.035676748 0.0048112124 -0.09862983 0.11831953 0.08918069 -0.1241332 0.0389259
-0.031047374 0.03167005 -0.06574628 -0.025826812 0.017668039 -0.04569426 0.02650474 0.021091104
-0.09711331 0.0077506453 -0.0147199035 -0.0019984394 0.11061858 -0.11748627 -0.09809257 0.08779484
0.07945755 0.029068097 -0.03739956 -0.019674733 0.014410317 0.06022452 -0.08153342 -0.059970483
0.009603009 0.029076785 0.026284814 0.019113794 -0.10034001 0.008860379 0.10134332 0.06376518
0.016048491 -0.07789908 -0.11298153 -0.008040458 0.0468629 -0.074279726 0.050812364 -0.11233947
0.10006085 -0.021921292 0.030953377 0.06940985 0.05740732 0.09234452 0.07412033 -0.08287233
0.08180119 0.116850674 0.07344131 0.110389456 -0.10646109 -0.015932962 -0.040450588 -0.039828926
0.08253299 -0.005122319 0.11141434 -0.10628523 -0.022979885 0.10999507 0.021183416 -0.094321385
0.009497032 0.1135709 -0.078768104 0.03295985 0.106618926 0.10794161 -0.048822448 0.115981504
00000000: 800d 353b 4012 52bd 287b 713d 70b2 fc3d
00000010: 80da 283b 2035 fcbb e0b7 10bd e024 cc3d
00000020: d0a8 cf3c c011 0f3b 106f f0bc b67b adbd
00000030: dcc5 4dbd 3a44 bd3d fc10 27bd a4e1 f0bd
00000040: 6a6a cdbd e4e0 12bd 208c 483d b037 f43c
00000050: 8016 3abd fcf9 553d a02d aa3b a079 dcbb
00000060: ec0c 96bd ac77 723d a2b6 b1bd 74ed 11bd
00000070: fe4f babd 66d4 a7bd 90a9 dbbc 6638 a4bd
00000080: 40e9 d53d e41c c9bd 1648 a03d 449a 45bd
00000090: 20d1 913d 884e 963d 98fb 55bd 8068 e43b
000000a0: 943e 6f3d 84b7 87bd 7047 a8bd 9069 18bd
000000b0: 9074 49bd 282a 8cbd 542b 2a3d f8e9 b7bd
000000c0: fe77 efbd e03e 183c fe16 aabd 86e5 8f3d
000000d0: 80f8 de3c 9e3a 8cbd f0f5 363d ece8 01bd
000000e0: e03e 3fbd 50e2 ffbc 8e95 8fbd ba78 e23d
000000f0: 8877 583d 0062 cebc 7080 57bc 90fd 7dbc
00000100: 0865 123d 74d4 c43d 206f 69bc d462 1c3d
00000110: 08f4 65bd 80b2 adbc 1cbe 60bd 80aa eb3a
00000120: 90f8 6dbc d205 9a3d 80ed c8bd 50fb 5dbd
00000130: c85b cc3d 0ac4 843d 7a44 ee3d 989a d33c
00000140: a2ff 84bd 0012 183a ee9b d7bd 4079 413c
00000150: 90cd 3d3c 3018 84bc 5269 97bd 905a 993d
00000160: 0610 adbd b068 27bd b253 823d 5eee bfbd
00000170: 982b a03d be0d e0bd 6a11 a13d fc79 d63d
00000180: 00b8 66ba 7070 fd3d 9475 b03d 3679 f1bd
00000190: be22 a13d f070 15bc b08d 833c 407c 5c3b
000001a0: 7405 643d 3879 87bd 1a6f c0bd ee84 dc3d
000001b0: 8001 fdbd 8ee3 b23d c8fe 35bd b044 09bd
000001c0: ac46 033d 40f9 43bc 72e2 d63d c8ee 733d
000001d0: 826c e93d a4ed 1e3d 82a9 e23d 40e2 fcbb
000001e0: f837 cc3c 1468 bd3d 4042 3c3c e053 e0bd
000001f0: 2231 ac3d 50ef b33c f816 d13c 28d5 9ebd
00000200: 6c3b 973d eaca c8bd 00d0 cabd 0422 ff3d
00000210: 20d6 86bd 108c 003c 14d8 b83d f231 febd
00000220: 72a8 babd 9ea4 fdbd f061 563c 62a3 f3bd
00000230: f858 b23c 80f9 8b3d 5acc b23d 0af8 f93d
00000240: face f7bd 6c71 adbd 9847 993d da8c fa3d
00000250: 1063 3b3c d217 bd3d 60b8 693d 60d4 d6bb
00000260: 8459 2ebd 12f0 eb3d 50ad 52bd 1026 273c
00000270: f0ab cfbd 30f4 a23d 3e30 b3bd d440 cd3d
00000280: cc99 18bd 004d c5ba c063 4b3c b683 e13d
00000290: bcde be3d 8a8b 843d 2058 99bc e6d2 ba3d
000002a0: c082 843d 1a9e 943d f820 89bd 4829 0e3d
000002b0: 208e febd 28f7 bdbd 4ef6 80bd 7edc 9c3d
000002c0: 78f9 71bd c821 123d 60a7 9d3b 70fe c9bd
000002d0: 8251 f23d 5ea4 b63d 8c39 febd c470 1f3d
000002e0: 1057 febc 74b8 013d fca5 86bd c092 d3bc
000002f0: 90bc 903c e829 3bbd 7820 d93c 40c7 ac3c
00000300: 58e3 c6bd 20f9 fd3b c02b 71bc 40f8 02bb
00000310: fe8b e23d a49c f0bd c2e4 c8bd c8cd b33d
00000320: a4ba a23d 3820 ee3c 4830 19bd e82c a1bc
00000330: 4019 6c3c fcad 763d fefa a6bd 9ca3 75bd
00000340: f055 1d3c 7032 ee3c 4053 d73c 8894 9c3c
00000350: 107f cdbd 202b 113c 168d cf3d 5297 823d
00000360: 2078 833c 8e89 9fbd dc62 e7bd 20bc 03bc
00000370: 50f3 3f3d f81f 98bd a020 503d 3c12 e6bd
00000380: b4ec cc3d 4894 b3bc f091 fd3c c026 8e3d
00000390: f023 6b3d 201f bd3d 66cc 973d f8b8 a9bd
000003a0: 6287 a73d 684f ef3d 6668 963d de13 e23d
000003b0: 4608 dabd d885 82bc 84af 25bd a823 23bd
000003c0: 0e07 a93d 20d9 a7bb 342d e43d 12ac d9bd
000003d0: 5040 bcbc 1845 e13d d888 ad3c 922b c1bd
000003e0: 7099 1b3c dc97 e83d 2c51 a1bd e800 073d
000003f0: 065b da3d 7e10 dd3d 0cfa 47bd b687 ed3d

backward_policy.0.bias f4 [128]
-0.061802074 0.0932211 -0.052685127 -0.051632255 0.045413703 0.11400339 0.023712412 0.10025342
0.05385585 -0.0138745755 0.0022536665 -0.06800091 -0.10829231 0.044557363 0.06683102 -0.07917903
-0.08030048 0.03231953 -2.0951033e-05 0.040026963 -0.11548859 -0.11242236 -0.07430917 -0.07839024
-0.110694736 -0.09846167 0.00671944 0.0593884 -0.11296967 -0.07024589 -0.018414333 0.11290945
-0.018164203 -0.013926357 0.096408725 -0.08201641 0.006850019 0.092975944 0.064904496 -0.09456617
0.045854688 0.08926627 0.005780235 -0.06787811 -0.0058173686 0.05879329 -0.11312455 0.04073526
-0.03717023 0.0042715073 -0.04125148 -0.0039808303 -0.058262095 0.041778684 0.03984256 -0.003321156
0.10436159 0.04350154 -0.034817994 -0.013895422 -0.065231204 -0.08662319 -0.003980309 0.004919097
-0.041793227 0.05480352 0.0475709 -0.10179284 0.113512516 -0.07746963 0.04220265 -0.10510497
0.0717262 -0.08335522 -0.029400691 -0.09022619 0.0046177953 0.09705016 0.005772352 -0.01338613
-0.09419966 -0.1147912 0.055057406 0.05343333 -0.04369524 0.014855623 -0.038801 0.013141051
-0.0065339953 -0.078945965 -0.11669481 0.049611494 -0.0643224 0.008832589 -0.08665614 -0.07555793
-0.05290413 0.10125911 0.0761985 -0.04038568 0.027781844 -0.060991958 0.05205062 -0.042870045
0.066306174 -0.07241906 -0.028161362 0.010378033 -0.04361485 -0.054372877 -0.050492212 0.097334564
0.026935175 -0.047011867 -0.10506898 -0.10550539 -0.031645298 0.09600507 -0.095306635 -0.030856878
0.11882725 -0.056991875 -0.060856238 0.07320657 0.11361845 0.10120149 0.048434943 0.030942634
00000000: 2c24 7dbd b4ea be3d 5ccc 57bd 587c 53bd
00000010: b803 3a3d 9c7a e93d 8840 c23c aa51 cd3d
00000020: f497 5c3d 3052 63bc 40b2 133b 1044 8bbd
00000030: 5cc8 ddbd c881 363d b4de 883d 9e28 a2bd
00000040: 9474 a4bd 7c61 043d 00c0 afb7 50f3 233d
00000050: 4885 ecbd b23d e6bd 682f 98bd 108b a0bd
00000060: ecb3 e2bd 46a6 c9bd c02e dc3b 4041 733d
00000070: a45c e7bd 14dd 8fbd a8d9 96bc 123d e73d
00000080: 18cd 94bc 602b 64bc f071 c53d 38f8 a7bd
00000090: 2076 e03b 2c6a be3d a6ec 843d e8ab c1bd
000000a0: 20d2 3b3d 3cd1 b63d 2068 bd3b ae03 8bbd
000000b0: a09f bebb 3cd1 703d d8ad e7bd 04da 263d
000000c0: d03f 18bd 00f8 8b3b 50f7 28bd a071 82bb
000000d0: 3ca4 6ebd 2020 2b3d f431 233d c0a7 59bb
000000e0: 88bb d53d ac2e 323d 509d 0ebd a0a9 63bc
000000f0: f097 85bd 8067 b1bd 406d 82bb 6030 a13b
00000100: 602f 2bbd a879 603d b4d9 423d c478 d0bd
00000110: 4079 e83d 66a8 9ebd b0dc 2c3d 4641 d7bd
00000120: 30e5 923d 24b6 aabd b8d9 f0bc 82c8 b8bd
00000130: e050 973b 3cc2 c63d 0026 bd3b 8051 5bbc
00000140: c0eb c0bd a617 ebbd e083 613d e8dc 5a3d
00000150: c8f9 32bd 0065 733c cced 1ebd 904d 573c
00000160: 201b d6bb 6cae a1bd b0fd eebd 6c35 4b3d
00000170: 76bb 83bd 90b6 103c c678 b1bd 1ebe 9abd
00000180: 00b2 58bd f060 cf3d f60d 9c3d 746b 25bd
00000190: c096 e33c b4d2 79bd 0833 553d 8098 2fbd
000001a0: 88cb 873d 7250 94bd a8b2 e6bc a008 2a3c
000001b0: 7ca5 32bd 18b6 5ebd ecd0 4ebd 5857 c73d
000001c0: 28a7 dc3c 848f 40bd 682e d7bd 3613 d8bd
000001d0: 809e 01bd 4e9e c43d 2030 c3bd 90c7 fcbc
000001e0: b45b f33d 5070 69bd 6444 79bd 54ed 953d
000001f0: cab0 e83d ba42 cf3d b863 463d 687b fd3c

backward_policy.2.weight f4 [4, 128]
-0.012964865 0.07943004 0.04815998 0.005021976 -0.061893363 -0.037604723 0.071480855 0.036510095
-0.037506513 -0.021123 0.0753119 0.0044907574 0.01812836 0.06786453 0.0482481 0.072448805
0.04307699 0.0026524803 -0.018355004 -0.019632328 0.08523721 -0.08779618 0.087214895 0.007882103
-0.07235168 0.057504505 0.050721455 -0.028275035 0.08798403 -0.0671084 -0.077485934 0.04343497
0.071636915 0.05913915 0.031413067 -0.032664817 -0.07629019 -0.06605274 -0.03189786 -0.06671756
0.072138764 0.087120794 0.04300854 -0.036111694 0.05624123 -0.028076312 0.036087185 -0.062315084
0.028387861 0.043148477 0.038262267 0.018031687 0.0033457116 0.07738563 -0.040457834 -0.08429717
0.07073184 -0.046794865 -0.0014881841 0.086299516 0.053432785 -0.07269002 -0.04842122 0.011436632
0.067056656 0.049199827 0.035508562 0.018802626 0.052358165 0.081619896 -0.008963328 -0.007165965
0.067922175 0.065138504 0.041706286 0.052829463 -0.08543391 0.085634775 -0.0846303 0.081903234
-0.06708674 0.058465663 0.0002648824 0.0660629 -0.029738426 0.0029527238 0.048701916 0.037721027
0.026141256 0.059298825 -0.019406885 0.065353595 -0.009964041 -0.022764398 0.04581556 0.004991367
-0.033871304 0.036942713 -0.07083354 -0.008975414 0.056344043 0.08275747 0.07014989 -0.0049122996
-0.008677677 -0.025882717 -0.08551575 0.08109301 0.04624169 0.08008517 0.012205632 -0.029784556
-0.086493105 0.060171094 0.07193998 -0.07000027 0.057679985 -0.073314466 0.03943725 0.07017287
-0.027772497 0.045336943 0.034322128 -0.036671225 6.259861e-05 -0.082736924 -0.038173083 -0.020918472
-0.088132866 -0.042843957 0.080358855 -0.037631612 0.028083488 -0.06460156 -0.00621548 -0.07167964
-0.043832965 0.05719346 0.023133298 0.0010717522 0.02467639 -0.074601434 -0.04241705 -0.048818093
-0.011374539 -0.0111595895 0.005205462 0.02901386 0.055842213 0.07775756 0.015920391 0.03372356
-0.05192597 0.072127566 -0.07847627 -0.009044745 -0.054029867 -0.0046144794 -0.032404076 -0.013401107
0.062213603 0.014837082 0.040923335 0.06817793 -0.022501465 0.08198653 0.06737851 -0.02868191
-0.07656314 0.07773313 0.050603267 -0.02298843 -0.05830838 0.037129983 -0.081076734 -0.0876363
-0.06576555 0.034214336 0.016472243 -0.05403757 -0.008776839 0.036726046 -0.048036426 -0.06319879
-0.049351737 -0.07337188 -0.078730755 -0.05888921 0.066702284 0.04509128 0.069451585 -0.0047552497
0.030153953 0.0028242392 0.019862387 -0.0072252764 0.03911549 -0.03316038 0.01593957 0.05621872
0.040935654 -0.07100222 0.05354521 0.08790813 0.042943306 0.058067556 -0.025265591 0.063933894
0.0053163404 0.085104495 -0.027429147 0.006080083 -0.03479903 -0.0732451 -0.026102312 0.02762374
-0.06906254 0.064080246 0.045285817 0.035224754 0.044391967 -0.02339798 0.003460193 -0.058265224
0.07959233 0.0011557825 0.041856468 0.03073482 -0.079654306 0.008591287 -0.08410344 -0.06924296
-0.06111334 0.05113361 0.031161357 0.02830756 0.07690335 -0.028802523 -0.039850004 -0.034467176
-0.047769006 -0.028607046 -0.072431326 0.07626606 0.08485228 -0.045660123 0.053452004 -0.017175473
-0.0032364037 0.048193466 -0.020898726 -0.08405335 0.03951035 0.07278834 -0.013414056 -0.032274812
00000000: 966a 54bc 38ac a23d 6643 453d 638f a43b
00000010: e583 7dbd 6907 1abd 8e64 923d 9c8b 153d
00000020: 6ea0 19bd 240a adbc 203d 9a3d 3427 933b
00000030: ed81 943c 8ffc 8a3d cd9f 453d 0a60 943d
00000040: 7f71 303d 3cd5 2d3b 3c5d 96bc fad3 a0bc
00000050: d990 ae3d 7cce b3bd b99d b23d f023 013c
00000060: 1e2d 94bd d889 6b3d 4dc1 4f3d 0ca1 e7bc
00000070: f930 b43d 2170 89bd f2b0 9ebd dee8 313d
00000080: 60b6 923d e53b 723d fdaa 003d 8bcb 05bd
00000090: 083e 9cbd a946 87bd 55a7 02bd 37a3 88bd
000000a0: 7dbd 933d 636c b23d b929 303d dbe9 13bd
000000b0: 345d 663d 4b00 e6bc 28d0 133d 1a3e 7fbd
000000c0: a98d e83c 75bc 303d e5b8 1c3d 30b7 933c
000000d0: ba43 5b3b 5b7c 9e3d 1db7 25bd ffa3 acbd
000000e0: dbdb 903d f9ab 3fbd 2c0f c3ba cdbd b03d
000000f0: 56dc 5a3d 81de 94bd 5455 46bd b660 3b3c
00000100: 0055 893d c285 493d 6d71 113d f707 9a3c
00000110: 8475 563d 5528 a73d ecda 12bc 79d0 eabb
00000120: c81a 8b3d 5667 853d 36d4 2a3d b563 583d
00000130: f9f7 aebd 4961 af3d a752 adbd e2bc a73d
00000140: c664 89bd b179 6f3d eadf 8a39 fc4b 873d
00000150: 009e f3bc 7c82 413b a97b 473d 5d81 1a3d
00000160: 3026 d63c 53e3 723d 30fb 9ebc 1bd8 853d
00000170: 3840 23bc 677c babc 19a9 3b3d 9f8e a33b
00000180: a3bc 0abd 3e51 173d 2d11 91bd 9d0d 13bc
00000190: 03c9 663d c07c a93d bfaa 8f3d 5bf7 a0bb
000001a0: d12c 0ebc fe07 d4bc e222 afbd 1814 a63d
000001b0: ed67 3d3d b203 a43d 22fa 473c befe f3bc
000001c0: 4c23 b1bd f775 763d 4555 933d 4d5c 8fbd
000001d0: d941 6c3d e525 96bd f488 213d cbb6 8f3d
000001e0: 2683 e3bc 3bb3 393d 5c95 0c3d 9134 16bd
000001f0: 5f47 8338 fa71 a9bd 615b 1cbd 375d abbc
00000200: 017f b4bd 257d 2fbd 2f93 a43d 9b23 1abd
00000210: 580f e63c d34d 84bd 3aab cbbb c6cc 92bd
00000220: 328a 33bd b143 6a3d 0b82 bd3c 097a 8c3a
00000230: 2426 ca3c a3c8 98bd 80bd 2dbd 7bf5 47bd
00000240: 465c 3abc b6d6 36bc 9592 aa3b 79ae ed3c
00000250: ceba 643d 5b3f 9f3d 7b6b 823c b721 0a3d
00000260: 53b0 54bd 9eb7 933d 2bb8 a0bd 6930 14bc
00000270: 6c4e 5dbd 0f35 97bb 23ba 04bd 5190 5bbc
00000280: b1d3 7e3d 3b17 733c 3a9f 273d dfa0 8b3d
00000290: fe54 b8bc 8ee8 a73d bffd 893d 53f6 eabc
000002a0: 23cd 9cbd 8c32 9f3d 5f45 4f3d 3b52 bcbc
000002b0: c5d4 6ebd 9c15 183d 8f0b a6bd a97a b3bd
000002c0: 17b0 86bd 5524 0c3d ccf0 863c 8056 5dbd
000002d0: bbcc 0fbc 0d6e 163d d8c1 44bd 5e6e 81bd
000002e0: 0c25 4abd ff43 96bd 973d a1bd d035 71bd
000002f0: 359b 883d a2b1 383d a23c 8e3d edd1 9bbb
00000300: 6c05 f73c df16 393b 72b6 a23c 03c2 ecbb
00000310: 9037 203d 2ed3 07bd b393 823c 9a45 663d
00000320: 25ac 273d 9d69 91bd 3952 5b3d 2d09 b43d
00000330: 52e5 2f3d 3fd8 6d3d c9f9 cebc c6ef 823d
00000340: b234 ae3b 444b ae3d 17b3 e0bc 6f3b c73b
00000350: 6d89 0ebd 8701 96bd 84d4 d5bc 2e4b e23c
00000360: a970 8dbd 813c 833d 9f7d 393d d547 103d
00000370: 5ad4 353d 1fad bfbc 68c4 623b 84a7 6ebd
00000380: 4e01 a33d a07d 973a b071 2b3d 97c7 fb3c
00000390: cc21 a3bd 78c2 0c3c 6d3e acbd 41cf 8dbd
000003a0: fb51 7abd 7a71 513d 1a46 ff3c 42e5 e73c
000003b0: 817f 9d3d 45f3 ebbc c239 23bd 742d 0dbd
000003c0: 6fa9 43bd 5359 eabc e056 94bd 6131 9c3d
000003d0: 08c7 ad3d 1c06 3bbd 7df0 5a3d 94b3 8cbc
000003e0: d819 54bb 8366 453d ce33 abbc 2a24 acbd
000003f0: 9bd5 213d 0e12 953d a1c6 5bbc 9832 04bd

backward_policy.2.bias f4 [4]
0.08329477 -0.06089622 -0.018644743 0.041798443
00000000: 7396 aa3d 516e 79bd dcbc 98bc d834 2b3d
